…
gnn_out=32, ignoreLTL=False, int_reward=0.0, layer_norm_eps=1e-05, log_interval=1, lr=0.001, ltl_sampler='Eventually_1_5_1_4', ltl_samplers_eval=None, max_grad_norm=0.5, model=None, nhead=8, noLTL=False, num_encoder_layers=4, optim_alpha=0.99, optim_eps=1e-08, pool='mean', pretrained_gnn=False, procs=16, progression_mode='full', recurrence=1, save_interval=2, seed=1, sth='None', value_loss_coef=0.5)

Device: cuda:0

Environments loaded

Training status loaded.

Observations preprocessor loaded.

Model loaded.

ACModel(
  (env_model): EnvModel()
  (ltl2transformer): TransfomerSyn(
    (embedded): Embedding(22, 64)
    (transformer): TransformerEncoderModel(
      (encoder): TransformerEncoder(
        (layers): ModuleList(
          (0): TransformerEncoderLayer(
            (self_attn): MultiheadAttention(
              (out_proj): NonDynamicallyQuantizableLinear(in_features=64, out_features=64, bias=True)
            )
            (linear1): Linear(in_features=64, out_features=256, bias=True)
            (dropout): Dropout(p=0.0, inplace=False)
            (linear2): Linear(in_features=256, out_features=64, bias=True)
            (norm1): LayerNorm((64,), eps=1e-05, elementwise_affine=True)
            (norm2): LayerNorm((64,), eps=1e-05, elementwise_affine=True)
            (dropout1): Dropout(p=0.0, inplace=False)
            (dropout2): Dropout(p=0.0, inplace=False)
          )
          (1): TransformerEncoderLayer(
            (self_attn): MultiheadAttention(
              (out_proj): NonDynamicallyQuantizableLinear(in_features=64, out_features=64, bias=True)
            )
            (linear1): Linear(in_features=64, out_features=256, bias=True)
            (dropout): Dropout(p=0.0, inplace=False)
            (linear2): Linear(in_features=256, out_features=64, bias=True)
            (norm1): LayerNorm((64,), eps=1e-05, elementwise_affine=True)
            (norm2): LayerNorm((64,), eps=1e-05, elementwise_affine=True)
            (dropout1): Dropout(p=0.0, inplace=False)
            (dropout2): Dropout(p=0.0, inplace=False)
          )
          (2): TransformerEncoderLayer(
            (self_attn): MultiheadAttention(
              (out_proj): NonDynamicallyQuantizableLinear(in_features=64, out_features=64, bias=True)
            )
            (linear1): Linear(in_features=64, out_features=256, bias=True)
            (dropout): Dropout(p=0.0, inplace=False)
            (linear2): Linear(in_features=256, out_features=64, bias=True)
            (norm1): LayerNorm((64,), eps=1e-05, elementwise_affine=True)
            (norm2): LayerNorm((64,), eps=1e-05, elementwise_affine=True)
            (dropout1): Dropout(p=0.0, inplace=False)
            (dropout2): Dropout(p=0.0, inplace=False)
          )
          (3): TransformerEncoderLayer(
            (self_attn): MultiheadAttention(
              (out_proj): NonDynamicallyQuantizableLinear(in_features=64, out_features=64, bias=True)
            )
            (linear1): Linear(in_features=64, out_features=256, bias=True)
            (dropout): Dropout(p=0.0, inplace=False)
            (linear2): Linear(in_features=256, out_features=64, bias=True)
            (norm1): LayerNorm((64,), eps=1e-05, elementwise_affine=True)
            (norm2): LayerNorm((64,), eps=1e-05, elementwise_affine=True)
            (dropout1): Dropout(p=0.0, inplace=False)
            (dropout2): Dropout(p=0.0, inplace=False)
          )
        )
        (norm): LayerNorm((64,), eps=1e-05, elementwise_affine=True)
      )
      (to_latent): Identity()
      (mlp_head): Sequential(
        (0): LayerNorm((64,), eps=1e-05, elementwise_affine=True)
        (1): Linear(in_features=64, out_features=16, bias=True)
      )
    )
  )
  (actor): PolicyNetwork(
    (enc_): Sequential()
    (discrete_): Sequential(
      (0): Linear(in_features=16, out_features=4, bias=True)
    )
  )
  (critic): Sequential(
    (0): Linear(in_features=16, out_features=1, bias=True)
  )
)

Optimizer loaded.

U 1 | F 008192 | FPS 0893 | D 9 | rR:μσmM 1.00 0.00 1.00 1.00 | ARPS: 0.112 | ADR: 0.387 | F:μσmM 11.5 6.0 3.0 44.0 | H 1.275 | V 0.230 | pL -0.078 | vL 0.063 | ∇ 0.407
U 2 | F 016384 | FPS 1575 | D 14 | rR:μσmM 1.00 0.00 1.00 1.00 | ARPS: 0.117 | ADR: 0.404 | F:μσmM 11.0 5.7 3.0 42.0 | H 1.342 | V 0.302 | pL -0.096 | vL 0.051 | ∇ 0.293
…
