…
ansformer', gnn_out=32, ignoreLTL=False, int_reward=0.0, layer_norm_eps=1e-05, log_interval=1, lr=0.001, ltl_sampler='Eventually_1_5_1_4', ltl_samplers_eval=None, max_grad_norm=0.5, model=None, nhead=8, noLTL=False, num_encoder_layers=1, optim_alpha=0.99, optim_eps=1e-08, pool='mean', pretrained_gnn=False, procs=16, progression_mode='full', recurrence=1, save_interval=5, seed=1, value_loss_coef=0.5)

Device: cuda:0

Environments loaded

Training status loaded.

Observations preprocessor loaded.

Model loaded.

ACModel(
  (env_model): EnvModel()
  (ltl2transformer): TransfomerSyn(
    (embedded): Embedding(22, 64)
    (transformer): TransformerEncoderModel(
      (encoder): TransformerEncoder(
        (layers): ModuleList(
          (0): TransformerEncoderLayer(
            (self_attn): MultiheadAttention(
              (out_proj): NonDynamicallyQuantizableLinear(in_features=64, out_features=64, bias=True)
            )
            (linear1): Linear(in_features=64, out_features=256, bias=True)
            (dropout): Dropout(p=0.0, inplace=False)
            (linear2): Linear(in_features=256, out_features=64, bias=True)
            (norm1): LayerNorm((64,), eps=1e-05, elementwise_affine=True)
            (norm2): LayerNorm((64,), eps=1e-05, elementwise_affine=True)
            (dropout1): Dropout(p=0.0, inplace=False)
            (dropout2): Dropout(p=0.0, inplace=False)
          )
        )
        (norm): LayerNorm((64,), eps=1e-05, elementwise_affine=True)
      )
      (to_latent): Identity()
      (mlp_head): Sequential(
        (0): LayerNorm((64,), eps=1e-05, elementwise_affine=True)
        (1): Linear(in_features=64, out_features=4, bias=True)
      )
    )
  )
  (actor): PolicyNetwork(
    (enc_): Sequential()
    (discrete_): Sequential(
      (0): Linear(in_features=4, out_features=8, bias=True)
    )
  )
  (critic): Sequential(
    (0): Linear(in_features=4, out_features=1, bias=True)
  )
)

Optimizer loaded.

U 1 | F 008192 | FPS 3108 | D 2 | rR:μσmM -0.95 0.30 -1.00 1.00 | ARPS: -0.352 | ADR: -0.651 | F:μσmM 6.1 5.5 1.0 39.0 | H 1.825 | V 1.028 | pL 0.678 | vL 1.021 | ∇ 4.809
U 2 | F 016384 | FPS 4189 | D 4 | rR:μσmM -0.85 0.53 -1.00 1.00 | ARPS: -0.290 | ADR: -0.559 | F:μσmM 7.6 6.9 1.0 47.0 | H 1.839 | V 0.580 | pL 0.483 | vL 0.468 | ∇ 0.092
…
