…
ansformer', gnn_out=32, ignoreLTL=False, int_reward=0.0, layer_norm_eps=1e-05, log_interval=1, lr=0.001, ltl_sampler='Eventually_1_5_1_4', ltl_samplers_eval=None, max_grad_norm=0.5, model=None, nhead=8, noLTL=False, num_encoder_layers=2, optim_alpha=0.99, optim_eps=1e-08, pool='mean', pretrained_gnn=False, procs=16, progression_mode='full', recurrence=1, save_interval=5, seed=1, value_loss_coef=0.5)

Device: cuda:0

Environments loaded

Training status loaded.

Observations preprocessor loaded.

Model loaded.

ACModel(
  (env_model): EnvModel()
  (ltl2transformer): TransfomerSyn(
    (embedded): Embedding(22, 64)
    (transformer): TransformerEncoderModel(
      (encoder): TransformerEncoder(
        (layers): ModuleList(
          (0): TransformerEncoderLayer(
            (self_attn): MultiheadAttention(
              (out_proj): NonDynamicallyQuantizableLinear(in_features=64, out_features=64, bias=True)
            )
            (linear1): Linear(in_features=64, out_features=256, bias=True)
            (dropout): Dropout(p=0.0, inplace=False)
            (linear2): Linear(in_features=256, out_features=64, bias=True)
            (norm1): LayerNorm((64,), eps=1e-05, elementwise_affine=True)
            (norm2): LayerNorm((64,), eps=1e-05, elementwise_affine=True)
            (dropout1): Dropout(p=0.0, inplace=False)
            (dropout2): Dropout(p=0.0, inplace=False)
          )
          (1): TransformerEncoderLayer(
            (self_attn): MultiheadAttention(
              (out_proj): NonDynamicallyQuantizableLinear(in_features=64, out_features=64, bias=True)
            )
            (linear1): Linear(in_features=64, out_features=256, bias=True)
            (dropout): Dropout(p=0.0, inplace=False)
            (linear2): Linear(in_features=256, out_features=64, bias=True)
            (norm1): LayerNorm((64,), eps=1e-05, elementwise_affine=True)
            (norm2): LayerNorm((64,), eps=1e-05, elementwise_affine=True)
            (dropout1): Dropout(p=0.0, inplace=False)
            (dropout2): Dropout(p=0.0, inplace=False)
          )
        )
        (norm): LayerNorm((64,), eps=1e-05, elementwise_affine=True)
      )
      (to_latent): Identity()
      (mlp_head): Sequential(
        (0): LayerNorm((64,), eps=1e-05, elementwise_affine=True)
        (1): Linear(in_features=64, out_features=16, bias=True)
      )
    )
  )
  (actor): PolicyNetwork(
    (enc_): Sequential()
    (discrete_): Sequential(
      (0): Linear(in_features=16, out_features=8, bias=True)
    )
  )
  (critic): Sequential(
    (0): Linear(in_features=16, out_features=1, bias=True)
  )
)

Optimizer loaded.

U 1 | F 008192 | FPS 2712 | D 3 | rR:μσmM -0.74 0.67 -1.00 1.00 | ARPS: -0.245 | ADR: -0.479 | F:μσmM 10.3 9.5 1.0 58.0 | H 1.795 | V 0.794 | pL 0.445 | vL 0.410 | ∇ 0.349
U 2 | F 016384 | FPS 3348 | D 5 | rR:μσmM -0.33 0.94 -1.00 1.00 | ARPS: -0.165 | ADR: -0.300 | F:μσmM 14.9 12.4 1.0 76.0 | H 1.836 | V 0.548 | pL 0.246 | vL 0.183 | ∇ 0.291
…
