…
ansformer', gnn_out=32, ignoreLTL=False, int_reward=0.0, layer_norm_eps=1e-05, log_interval=1, lr=0.001, ltl_sampler='Eventually_1_5_1_4', ltl_samplers_eval=None, max_grad_norm=0.5, model=None, nhead=8, noLTL=False, num_encoder_layers=2, optim_alpha=0.99, optim_eps=1e-08, pool='mean', pretrained_gnn=False, procs=16, progression_mode='full', recurrence=1, save_interval=5, seed=1, value_loss_coef=0.5)

Device: cuda:0

Environments loaded

Training status loaded.

Observations preprocessor loaded.

Model loaded.

ACModel(
  (env_model): EnvModel()
  (ltl2transformer): TransfomerSyn(
    (embedded): Embedding(22, 64)
    (transformer): TransformerEncoderModel(
      (encoder): TransformerEncoder(
        (layers): ModuleList(
          (0): TransformerEncoderLayer(
            (self_attn): MultiheadAttention(
              (out_proj): NonDynamicallyQuantizableLinear(in_features=64, out_features=64, bias=True)
            )
            (linear1): Linear(in_features=64, out_features=256, bias=True)
            (dropout): Dropout(p=0.0, inplace=False)
            (linear2): Linear(in_features=256, out_features=64, bias=True)
            (norm1): LayerNorm((64,), eps=1e-05, elementwise_affine=True)
            (norm2): LayerNorm((64,), eps=1e-05, elementwise_affine=True)
            (dropout1): Dropout(p=0.0, inplace=False)
            (dropout2): Dropout(p=0.0, inplace=False)
          )
          (1): TransformerEncoderLayer(
            (self_attn): MultiheadAttention(
              (out_proj): NonDynamicallyQuantizableLinear(in_features=64, out_features=64, bias=True)
            )
            (linear1): Linear(in_features=64, out_features=256, bias=True)
            (dropout): Dropout(p=0.0, inplace=False)
            (linear2): Linear(in_features=256, out_features=64, bias=True)
            (norm1): LayerNorm((64,), eps=1e-05, elementwise_affine=True)
            (norm2): LayerNorm((64,), eps=1e-05, elementwise_affine=True)
            (dropout1): Dropout(p=0.0, inplace=False)
            (dropout2): Dropout(p=0.0, inplace=False)
          )
        )
        (norm): LayerNorm((64,), eps=1e-05, elementwise_affine=True)
      )
      (to_latent): Identity()
      (mlp_head): Sequential(
        (0): LayerNorm((64,), eps=1e-05, elementwise_affine=True)
        (1): Linear(in_features=64, out_features=12, bias=True)
      )
    )
  )
  (actor): PolicyNetwork(
    (enc_): Sequential()
    (discrete_): Sequential(
      (0): Linear(in_features=12, out_features=8, bias=True)
    )
  )
  (critic): Sequential(
    (0): Linear(in_features=12, out_features=1, bias=True)
  )
)

Optimizer loaded.

U 1 | F 008192 | FPS 2108 | D 3 | rR:μσmM -0.83 0.55 -1.00 1.00 | ARPS: -0.135 | ADR: -0.326 | F:μσmM 15.8 11.4 1.0 59.0 | H 1.886 | V -0.372 | pL -0.041 | vL 0.048 | ∇ 0.239
U 2 | F 016384 | FPS 2547 | D 7 | rR:μσmM -0.01 0.99 -1.00 1.00 | ARPS: -0.033 | ADR: -0.086 | F:μσmM 28.2 16.4 1.0 76.0 | H 1.896 | V -0.225 | pL -0.084 | vL 0.042 | ∇ 0.223
…
